app/src/main/ml/model1.tflite (tflite, 878516 bytes, 6 tensors)

sequential/dense/BiasAdd/ReadVariableOp/resource f4 [512]
0	0xbc751a9a	-0.014959956
1	0x3bd47d57	0.0064846682
2	0xbc44cd33	-0.012011814
3	0xbc02ae64	-0.007976148
4	0xbc8a8b5e	-0.016912159
5	0xbca6db70	-0.020368308
6	0x3d0cc849	0.034370694
7	0x3b136eef	0.0022496541
8	0x3ac9abdc	0.0015386301
9	0xbcbefc56	-0.023313683
10	0xbc045734	-0.0080774315
11	0xbcb5a8fd	-0.022175306
12	0x3075d903	8.9438873e-10
13	0xbbbcd584	-0.0057627577
14	0xbc0b8129	-0.008514681
15	0x3b222f31	0.0024747367
16	0xbc88ddf2	-0.016707394
17	0x3bd4aeb9	0.006490555
18	0xbc7e73d7	-0.015530548
19	0xbc35b3d6	-0.0110902395
20	0x3b30ad14	0.0026958631
21	0x3b4835c4	0.0030549625
22	0xbc070bf3	-0.008242595
23	0xbc4162b1	-0.011803315
24	0xbb8fd0ae	-0.00438889
25	0xbb9c4c57	-0.0047698426
26	0x00000000	0.0
27	0xa5525b11	-1.8245451e-16
28	0xbba55e86	-0.0050466685
29	0xbc1d9986	-0.009619122
30	0xbc0088c2	-0.007845106
31	0xbc3d991e	-0.0115721505
32	0xbb826648	-0.003979478
33	0xbccef834	-0.025264837
34	0x3b26fc9c	0.0025480157
35	0xbbc7e368	-0.006100107
36	0xbc5ba4f4	-0.013406027
37	0xbc3f1cd5	-0.011664589
38	0x00000000	0.0
39	0xbc911118	-0.017708346
40	0xbc0d362b	-0.008618872
41	0xbc1ab172	-0.00944172
42	0xbc70aca4	-0.014689598
43	0xbc86a26e	-0.016434874
44	0xbc4d2a6c	-0.012522321
45	0xb49a18ac	-2.8702686e-07
46	0xbbc23ce3	-0.0059276684
47	0xbc12d2be	-0.008961378
48	0x3c035640	0.008016169
49	0xbba44fb6	-0.005014385
50	0xbc58c00a	-0.013229379
51	0xbcba9944	-0.02277816
52	0xbc8f590e	-0.01749852
53	0x3ba51517	0.0050379145
54	0x3bd2d31c	0.0064338576
55	0xbc333f03	-0.010940316
56	0xbba09864	-0.004900979
57	0x3c3c57a8	0.011495508
58	0xbbdf049a	-0.0068059685
59	0xbc0e67fb	-0.008691783
60	0xbcf9ad60	-0.03047818
61	0x3c2eb26d	0.010662657
62	0xbc3b12a2	-0.011418017
63	0xbba7f0a4	-0.005125122
64	0xbb815623	-0.003947036
65	0x3cb567dc	0.02214425
66	0xbaa6a2a4	-0.0012713266
67	0x201730a2	1.2806289e-19
68	0x3c074d73	0.008258211
69	0xbbb62210	-0.00555826
70	0xbba7eeb0	-0.0051248893
71	0xbbf3a120	-0.007434979
72	0xbc1a473c	-0.009416398
73	0x3cecc594	0.028902806
74	0x3cd9f4d3	0.026606
75	0xbb9ce841	-0.004788429
76	0xbc0dfab7	-0.008665732
77	0xbba7f5eb	-0.0051257513
78	0xbc22d2b5	-0.009937932
79	0xbc445d18	-0.011985086
80	0xbc204d0e	-0.009783996
81	0xbb9a07cb	-0.004700636
82	0x3bc78560	0.0060888976
83	0xbc1fd257	-0.009754739
84	0x3b8c6923	0.004284994
85	0xbb35addd	-0.0027722039
86	0xbcae3140	-0.021263719
87	0xbab8bef8	-0.0014094999
88	0xbccb0228	-0.024781302
89	0xbca65bb2	-0.020307396
90	0xbc01f17e	-0.007931111
91	0xbba797fd	-0.005114554
92	0xbc1d06c1	-0.00958413
93	0xbb6a66f0	-0.0035766922
94	0xbc70e95d	-0.014704076
95	0xbcb7728e	-0.022393491
96	0x3cce9eaa	0.025222141
97	0xbc0603ca	-0.008179614
98	0xbcb82dbc	-0.022482745
99	0xbcf01a49	-0.029309409
100	0xbce44359	-0.027864145
101	0xbca4ab26	-0.020101141
102	0xbbd36161	-0.0064508175
103	0xbb89b945	-0.004202994
104	0x3b9e1890	0.0048247054
105	0xbba91ae9	-0.0051606786
106	0xbc17bff9	-0.009262078
107	0xbbb61766	-0.0055569885
108	0x3c1d77a9	0.009611049
109	0xbba91140	-0.005159527
110	0x3c01c5af	0.007920667
111	0x3c1b84d8	0.009492122
112	0xbb5ca1fe	-0.003366589
113	0xbc6fec0b	-0.014643679
114	0xbca6dc98	-0.02036886
115	0xbc6394a9	-0.013890424
116	0xbc6a8d46	-0.014315909
117	0xbc8611e8	-0.01636596
118	0x3a5cb8bb	0.0008419861
119	0xbc511a2c	-0.0127625875
120	0xbcbade7f	-0.022811173
121	0x9f7b463a	-5.3209407e-20
122	0xbbedabd9	-0.007253152
123	0xbc977508	-0.018488422
124	0xbb36e030	-0.0027904622
125	0xbc87ab62	-0.016561214
126	0xbba91d15	-0.0051609376
127	0xbc6fe9ae	-0.014643116
128	0xbcaeade5	-0.021323154
129	0xbb67009a	-0.0035248161
130	0xae401fac	-4.3683876e-11
131	0x357a3098	9.320297e-07
132	0xbc215774	-0.009847511
133	0xbc76b65a	-0.015058124
134	0x3b9c8097	0.0047760713
135	0xbc2cfd0b	-0.010558377
136	0xbc421451	-0.011845664
137	0xbbc1098c	-0.0058910307
138	0x00000000	0.0
139	0xbc4d39db	-0.012526001
140	0xbcadd85a	-0.021221329
141	0xbcc31179	-0.023812043
142	0xbc788e77	-0.015170685
143	0x3c922a6d	0.017842496
144	0xbc10b9d5	-0.008833368
145	0x00000000	0.0
146	0xbc25aac6	-0.010111516
147	0xbb6f824a	-0.0036546164
148	0xbc96e3fd	-0.01841926
149	0x3acc4418	0.0015584258
150	0xbbb614d8	-0.005556684
151	0xa06c550c	-2.0018117e-19
152	0xbbb5e607	-0.005551103
153	0x9dada498	-4.5962905e-21
154	0x00000000	0.0
155	0xbc905231	-0.017617317
156	0xbbf13883	-0.007361473
157	0x3bd5c619	0.006523859
158	0xbce363d1	-0.027757557
159	0xbb87fd2e	-0.0041500544
160	0xbb667d57	-0.0035169923
161	0xbc0e396f	-0.008680685
162	0xbca19662	-0.019725028
163	0xbc3f36ad	-0.011670751
164	0xbc100c82	-0.008792045
165	0xbc5778aa	-0.013151327
166	0xbc69d45d	-0.014271823
167	0xbbed685a	-0.0072451057
168	0xbbe8d0b3	-0.007104957
169	0xbc4071c9	-0.0117458785
170	0xbc50c3c7	-0.012741989
171	0xbbca50e8	-0.0061741956
172	0x3c32e151	0.010917977
173	0x3c88c287	0.01669432
174	0xbcb936f6	-0.022609215
175	0xbc342d17	-0.010997078
176	0xbce91ae3	-0.028455203
177	0xbc938ae9	-0.018010573
178	0xbc1e2274	-0.009651769
179	0xbbb1896d	-0.0054179938
180	0x00000000	0.0
181	0x3b90c033	0.004417443
182	0xbcb266fe	-0.021777626
183	0xbc852c67	-0.016256524
184	0xbc7a4460	-0.015275091
185	0x36feadb1	7.5900102e-06
186	0xb950fb56	-0.00019930056
187	0xbb981a00	-0.0046417713
188	0xbc8fe758	-0.017566368
189	0xbc87e49f	-0.016588507
190	0xbbaf1974	-0.0053436104
191	0xbcdc94f5	-0.026926497
192	0xbc4fcbb5	-0.012682845
193	0xbc1530d8	-0.009105884
194	0x3bdd8fa5	0.0067615085
195	0xbc08f168	-0.008358337
196	0xbbc27a5b	-0.005934996
197	0x9f9596df	-6.335355e-20
198	0xbbcf1464	-0.0063195694
199	0x3b10eec6	0.0022114976
200	0x3c9f923a	0.019478906
201	0xbcbb03d2	-0.02282897
202	0x3b81cfa2	0.0039615193
203	0xbc64fc6f	-0.0139762005
204	0xbc354d1b	-0.011065747
205	0xbc08af81	-0.008342625
206	0xbc1b16bd	-0.00946587
207	0xbc89003d	-0.016723746
208	0x00000000	0.0
209	0xba685f77	-0.0008864323
210	0xbc703b8f	-0.014662637
211	0x3b555acc	0.003255534
212	0x3b6622a0	0.0035115853
213	0xbb368cc4	-0.00278549
214	0xbcbbef4c	-0.022941254
215	0xbbb61e0e	-0.005557782
216	0xbcab93fc	-0.020944588
217	0x3c8a49aa	0.016880829
218	0xbca216f8	-0.019786343
219	0xbcaacf0c	-0.02085068
220	0xbcfc8ec9	-0.030829804
221	0xbcac4402	-0.021028522
222	0xbbaf3056	-0.0053463383
223	0xbc1daac2	-0.009623231
224	0xbbe86e09	-0.0070931953
225	0x3c511454	0.012761194
226	0xbbde9f32	-0.00679388
227	0x3ba45cf5	0.005015964
228	0xbba7eab8	-0.005124416
229	0xbc8b8f1b	-0.017036011
230	0xbbe8a09a	-0.0070992233
231	0xa705533f	-1.8502586e-15
232	0xbc035cc7	-0.008017725
233	0xbb64275b	-0.0034813497
234	0xbb54c85b	-0.0032468054
235	0xbc431deb	-0.0119089885
236	0x3c5e458d	0.013566387
237	0xbc961055	-0.018318335
238	0x3b153bdd	0.0022771277
239	0xbca3f8f7	-0.020016177
240	0xbc083262	-0.008312793
241	0xbca02c6b	-0.01955243
242	0xbc0e6486	-0.008690959
243	0x3c3297b4	0.010900427
244	0xaa1098f4	-1.2842836e-13
245	0xbbe6a151	-0.0070382734
246	0xbca9203e	-0.020645257
247	0xbc269d03	-0.01016927
248	0x3c11d8f5	0.008901824
249	0xba7f49b0	-0.00097384583
250	0xbc2c9927	-0.010534561
251	0xbbfd43c9	-0.007729028
252	0xb47f2fe6	-2.3766151e-07
253	0xbc026dab	-0.007960717
254	0xbc2bddd0	-0.010489896
255	0xbaec6a61	-0.0018037074

sequential/dense_1/BiasAdd/ReadVariableOp/resource f4 [256]
0	0xbc92b9de	-0.017910894
1	0x3c859f4e	0.016311314
2	0xbbfc3cde	-0.0076976856
3	0xbc1fd019	-0.009754204
4	0x3c853da8	0.016264752
5	0xbcc18ede	-0.023627695
6	0xbd001eef	-0.0312795
7	0xbbac5d09	-0.005260114
8	0x3b037a77	0.0020062008
9	0xbb2c30a3	-0.0026274107
10	0x39ead487	0.00044790303
11	0xbd01593d	-0.031579245
12	0xbbf2fe5b	-0.0074155754
13	0xbcf1638b	-0.029466411
14	0xbc39ff3d	-0.011352357
15	0x3cabf02b	0.020988544
16	0x3b1c44cb	0.0023844715
17	0xbca1688f	-0.019703178
18	0xba84a1ff	-0.0010119079
19	0xbcaae9ee	-0.0208635
20	0xbcaaee4e	-0.020865586
21	0x3ac24299	0.0014820873
22	0xbca360a8	-0.01994355
23	0xbc2d79d2	-0.010588126
24	0xbca0a4bc	-0.019609801
25	0xbce45221	-0.027871193
26	0x3bc25a8c	0.005931204
27	0xbbbd6838	-0.005780246
28	0xbc52342a	-0.01282982
29	0xbc65608a	-0.0140000675
30	0x3b32592b	0.0027213793
31	0xbcf777b9	-0.030208455
32	0xbbf98080	-0.0076141953
33	0xbc14296f	-0.009043082
34	0xbc1e4824	-0.009660754
35	0xbbe1257f	-0.006870925
36	0xbb67a2cf	-0.0035344844
37	0xbc349173	-0.011021006
38	0xbc312c04	-0.010813717
39	0x3c21ce53	0.009875852
40	0xbc71b803	-0.0147533445
41	0xbca4e0c9	-0.020126717
42	0xbbc976e5	-0.0061482065
43	0x3b59db8b	0.003324243
44	0x3c901312	0.017587218
45	0x3cb32044	0.021865971
46	0xbc66fe0f	-0.014098658
47	0xbc5b17c7	-0.013372368
48	0xbcf70a9c	-0.030156426
49	0xbc05d5b1	-0.008168624
50	0xbca781b9	-0.020447599
51	0xbd22bf84	-0.039733425
52	0xbc491b1c	-0.01227453
53	0xbc884474	-0.016634203
54	0xbb96fa62	-0.0046074847
55	0xbc2ca104	-0.010536436
56	0xbc0d98e2	-0.008642407
57	0x3be83c8b	0.0070872954
58	0x39e8db8b	0.0004441406
59	0xbc93618e	-0.017990854
60	0xbcac8148	-0.02105774
61	0xbc833216	-0.016015094
62	0xbc66b0b0	-0.0140802115
63	0xbc980e91	-0.018561633
64	0xbb215c9c	-0.002462185
65	0xbd02780d	-0.03185277
66	0xbce2e7be	-0.027698394
67	0xbcf8ea62	-0.0303852
68	0xbd0d4953	-0.034493756
69	0xbc09c0c6	-0.008407777
70	0xbc92857e	-0.01788592
71	0xbbaf33a9	-0.0053467345
72	0xbcbc3f83	-0.022979503
73	0x3a15fba1	0.00057213946
74	0x3b465e72	0.0030268696
75	0xbb16d509	-0.0023015162
76	0xbbaeeb27	-0.005338091
77	0xbb8bed2c	-0.0042702165
78	0x3c3c4443	0.011490884
79	0x3c05b08c	0.008159768
80	0x3d0cba5d	0.034357417
81	0xbcd085ee	-0.025454488
82	0x3c8d7a1f	0.017270146
83	0xbbc155b9	-0.0059001115
84	0xbc870f4e	-0.01648679
85	0xbc7c987a	-0.015417213
86	0xbc4b8b81	-0.012423397
87	0x3c18048f	0.009278431
88	0x3b7a67af	0.0038208773
89	0xbc8406c5	-0.01611651
90	0xbc7e8e5f	-0.015536874
91	0xbcd4cfc5	-0.025977978
92	0x3c0113e5	0.007878278
93	0xbcb55cf1	-0.022139044
94	0xbc0833b5	-0.008313109
95	0xbcca2f2d	-0.024680698
96	0xbb339b3c	-0.002740576
97	0xbc978a9d	-0.018498713
98	0xbcd5e8a5	-0.02611191
99	0xbca8e310	-0.020616084
100	0x3b503cb8	0.0031774472
101	0xbcc42340	-0.02394259
102	0xbc6e1b41	-0.014532865
103	0xbaed267c	-0.0018093134
104	0x3c43b1ad	0.011944217
105	0xbc864791	-0.016391547
106	0x3cbf3721	0.023341717
107	0xbca47200	-0.02007389
108	0xbd02a08b	-0.031891387
109	0xbb855e88	-0.004070107
110	0xbc83b4ba	-0.016077388
111	0xbc52b0fe	-0.012859581
112	0xbbd7f938	-0.0065909885
113	0xbc24f41f	-0.010067969
114	0xbc8eb7fa	-0.017421711
115	0xbc4a1d47	-0.012336082
116	0x3c3ca2e3	0.011513445
117	0x3bac76e3	0.005263196
118	0x3cc4c7b9	0.024021016
119	0x3cfd9acb	0.0309576
120	0xbc1cf7fd	-0.009580609
121	0xbbf539df	-0.0074837054
122	0xbc6998cc	-0.014257621
123	0xbcb42dd9	-0.021994518
124	0xbc841169	-0.016121583
125	0xbce0dda2	-0.027449433
126	0x3c19c67c	0.009385701
127	0x3d30042a	0.04297272
128	0xbc437678	-0.011930101
129	0xbc4787cd	-0.0121783735
130	0x3b62eef4	0.003462729
131	0xbc15ff73	-0.009155142
132	0x3bfd7368	0.0077347048
133	0x3d0fd11c	0.03511153
134	0xbb8c72ec	-0.0042861607
135	0xbcca312e	-0.024681654
136	0x3b5942d2	0.00331514
137	0x3c61fda5	0.013793384
138	0xbc670b84	-0.014101867
139	0x3d0fd8fc	0.03511904
140	0xbc74a8c1	-0.014932812
141	0xbcf39d9f	-0.029738246
142	0xbc9a4764	-0.01883287
143	0xbc67ac96	-0.014140269
144	0xbc0fb3a1	-0.008770854
145	0xbbcd6b42	-0.0062688896
146	0xbc8b6a9c	-0.017018609
147	0xbbee94db	-0.0072809285
148	0xbcb8f921	-0.022579731
149	0xbbcf5e08	-0.006328348
150	0xbb200562	-0.002441727
151	0xbc20c234	-0.009811927
152	0xbc9c8592	-0.01910666
153	0xbc9c2853	-0.019062197
154	0xbc843e75	-0.016143063
155	0xbc8825d7	-0.016619606
156	0xbc2ffd2a	-0.010741511
157	0xbac0242e	-0.001465922
158	0xbc00108f	-0.007816448
159	0xbc2f21da	-0.010689223
160	0xbcd764f9	-0.026293265
161	0xbbb61186	-0.005556288
162	0xbb26a371	-0.0025427009
163	0xbcab8675	-0.020938138
164	0xbafd5157	-0.0019326609
165	0xbcbf233a	-0.023332227
166	0xbbebe48e	-0.0071988767
167	0x3c14014f	0.009033515
168	0xbbbeb53d	-0.005819945
169	0xbb763497	-0.0037567967
170	0xbc5fb56c	-0.013654094
171	0xbc9ad7bb	-0.018901696
172	0xbc507dad	-0.012725276
173	0xbcee9f36	-0.029128652
174	0x3c062c92	0.008189337
175	0xbcda90aa	-0.02668031
176	0xbc6b45dc	-0.0143599175
177	0x3d0bef36	0.034163676
178	0xbcc92b87	-0.024556888
179	0x3a1fdc56	0.0006098201
180	0x3d164a7d	0.03669213
181	0xbca1e767	-0.019763662
182	0xbc8b97fb	-0.017040243
183	0x3c419e90	0.011817589
184	0xbc600fc2	-0.013675632
185	0x3c792203	0.015205863
186	0x3c912f2a	0.017722685
187	0xba4de346	-0.0007853996
188	0xbcb147ca	-0.021640677
189	0xbc776f85	-0.015102272
190	0xbc7e2c5a	-0.015513504
191	0xbc7d34d2	-0.015454488
192	0xbc83010b	-0.015991708
193	0xbc5130e4	-0.012768004
194	0xbc8b268d	-0.016986156
195	0x3d2656e8	0.040610224
196	0xbc7cb5d7	-0.015424213
197	0xbb678cde	-0.0035331766
198	0xbbb318ef	-0.005465619
199	0xbbc54bc0	-0.006020993
200	0xbcc2026b	-0.023682794
201	0xbcd23237	-0.02565871
202	0x3c415a47	0.011801309
203	0xbc9d15e2	-0.019175474
204	0xbc924840	-0.017856717
205	0xbc9d7c41	-0.019224288
206	0xbc954148	-0.018219605
207	0x3c998633	0.018740749
208	0x3c99e00d	0.018783594
209	0x3d42ff79	0.04760692
210	0xbc1850dd	-0.009296623
211	0xbcb08b8f	-0.021550922
212	0xbc262ff7	-0.010143272
213	0xbc2f15e3	-0.010686371
214	0xbce8547f	-0.028360603
215	0xbd09196a	-0.033471502
216	0xbc1134a2	-0.008862646
217	0xbb1680c4	-0.0022964934
218	0xbb6ce85a	-0.0036149235
219	0xbc91b808	-0.017787948
220	0xbc79c1db	-0.015243973
221	0xbd152454	-0.0364116
222	0x3cbde928	0.023182467
223	0xbbe71b5b	-0.0070528216
224	0xbbb9c88b	-0.0056696585
225	0xbcae3882	-0.02126718
226	0xbc1fefe7	-0.009761787
227	0xbb411d67	-0.0029466988
228	0xbc80ccf5	-0.015722731
229	0xbc9c24ac	-0.019060455
230	0xbca33d54	-0.019926704
231	0x3c898845	0.016788611
232	0x3a87f0bf	0.001037143
233	0x3b6b25a5	0.0035880592
234	0x3ca69041	0.020332457
235	0xbb93dc61	-0.004512355
236	0xbc2e978b	-0.010656248
237	0xbd1bce4f	-0.038038548
238	0xbc66d683	-0.0140892295
239	0xbc313087	-0.0108147925
240	0xbcb0b9b0	-0.021572918
241	0x3af492f4	0.0018659518
242	0xbcc2d513	-0.023783242
243	0xbca9f9f8	-0.020749077
244	0xbcaf3a7f	-0.021390198
245	0xbc74eba8	-0.014948763
246	0xba3778ac	-0.00069988775
247	0x3d14c6dc	0.03632246
248	0xb9fcdb67	-0.00048228653
249	0x3b89a669	0.004200746
250	0xbcc85ba8	-0.024457768
251	0x3a58daf0	0.00082723703
252	0x3ccf6906	0.025318634
253	0xbc69c5bb	-0.014268334
254	0xbbc97c16	-0.0061488254
255	0x3d067469	0.03282586

sequential/dense_2/BiasAdd/ReadVariableOp/resource f4 [3]
0	0xbce358a5	-0.02775223
1	0x3d2b64a3	0.04184402
2	0xbcba2b27	-0.022725655

sequential/dense/MatMul f4 [512, 169]
0	0xbcceac85	-0.025228748
1	0x3cba75d4	0.022761263
2	0xbd7d5860	-0.06185186
3	0xbc9e9c75	-0.019361714
4	0x3d5d77cd	0.05406933
5	0x3d1f2beb	0.038860243
6	0x3c691195	0.014225383
7	0xbc1a76d3	-0.009427744
8	0x3c9a6ab3	0.018849706
9	0xbd81364a	-0.06309183
10	0x3bc5d2cd	0.0060370923
11	0xbc3d6bbe	-0.011561332
12	0x3ccd571c	0.025065951
13	0xbb66ad0a	-0.0035198354
14	0xbd4310dc	-0.0476235
15	0x3d6ad0e9	0.05732814
16	0x3d1635fe	0.036672585
17	0xbd38b12a	-0.04509083
18	0x3d757a5e	0.05993115
19	0x3db584d1	0.08863223
20	0xbd0f7d36	-0.03503152
21	0xbd98ab07	-0.07454496
22	0x3c85cc5b	0.016332796
23	0xbdab11da	-0.08353014
24	0x3d59e5ce	0.053197674
25	0x397f9868	0.00024375471
26	0xbc40108a	-0.011722693
27	0x3d5330b6	0.051560126
28	0x3cbfb3e9	0.023401218
29	0xbd24a7fe	-0.040199272
30	0x3d695932	0.05696983
31	0xbdb9b7b3	-0.09068241
32	0xbd504ad2	-0.050852604
33	0xbce4eabf	-0.027943967
34	0xbd9cabe5	-0.07649974
35	0x3da7e3a0	0.08197713
36	0x3d997247	0.074925
37	0x3d6a385f	0.057182666
38	0xbd98f5e6	-0.074687764
39	0x3dc72e31	0.09725607
40	0xbd40e4dd	-0.04709326
41	0xbd4a98b2	-0.049462028
42	0x3c866bf9	0.016408907
43	0xbd4856ff	-0.04891109
44	0xbdc920c2	-0.09820701
45	0xbd862d41	-0.065516
46	0xbd764da7	-0.06013265
47	0xbd85767f	-0.06516742
48	0xbd711c58	-0.05886492
49	0x3cf2e08f	0.029648094
50	0xbdaaeba0	-0.08345723
51	0x3d1e18d3	0.038597893
52	0x3d5e03e2	0.05420292
53	0xbd70f946	-0.058831476
54	0xbcc49e49	-0.024001257
55	0xbd8bbe3c	-0.06823394
56	0xbc902f95	-0.017600814
57	0x3d04dd8a	0.03243784
58	0x3cb2bd64	0.021818824
59	0xbd55a7a6	-0.052161835
60	0x3cfb6240	0.030686498
61	0x3d710f1f	0.05885231
62	0x3a24a945	0.00062813266
63	0xbce93ee4	-0.028472371
64	0x3c73e51d	0.014886168
65	0x3cd3a7cf	0.025836853
66	0x3d1f0da6	0.038831376
67	0x3d43cfad	0.047805477
68	0xbdb3ba57	-0.08775776
69	0x3d849f8b	0.06475743
70	0xbc532d61	-0.012889237
71	0x3d78de09	0.060758624
72	0x3cdf83c2	0.027284507
73	0xbbbdfcdf	-0.005797967
74	0xbdbbb55f	-0.09165453
75	0xbd4a1e4e	-0.049345307
76	0xbd0d259b	-0.03445969
77	0x3d376be0	0.044780612
78	0x3d3bdad1	0.045862976
79	0x3cada949	0.021198886
80	0xbc2aaaaa	-0.010416666
81	0xbd000102	-0.03125096
82	0x3da32f88	0.0796805
83	0xbdd99ea2	-0.1062596
84	0x3d3899cd	0.04506855
85	0x3d8f6fa7	0.07003718
86	0xbcfbaefb	-0.030723086
87	0xbda43a12	-0.080188885
88	0xbcc392b3	-0.023873663
89	0x3a775662	0.0009435174
90	0xbd2844fd	-0.041081417
91	0xbcc9b683	-0.024623161
92	0x3d55e5ea	0.052221216
93	0xbcc75fda	-0.024337698
94	0xbcfa36a3	-0.030543631
95	0x3d46524b	0.048418324
96	0xbdb92503	-0.090402626
97	0x3da8e32c	0.082464546
98	0x3daf6625	0.085644044
99	0x3d0005cd	0.031255532
100	0xbca1d59a	-0.019755173
101	0x3cc582e1	0.02411026
102	0x3ce41347	0.027841223
103	0x3da3bc57	0.07994907
104	0xbd34ba98	-0.044123262
105	0x3d9c2205	0.07623676
106	0xbd8cd9a2	-0.06877448
107	0x3d56f7d8	0.052482456
108	0x3dcb7843	0.099350475
109	0xbd930f05	-0.07180599
110	0xbd92ad11	-0.07161916
111	0xbca6ecd9	-0.02037661
112	0x3d78dd8c	0.06075816
113	0x3d347ae1	0.0440625
114	0xbc0fad97	-0.008769414
115	0x3d7c2cbf	0.06156611
116	0x3dbc8498	0.09204978
117	0x3cbd88ef	0.023136584
118	0xbdd67b6b	-0.10472759
119	0x3d301784	0.042991176
120	0x3db2cef1	0.08730877
121	0x3d9a1011	0.07522596
122	0xbdd2acaf	-0.10286843
123	0x3d8b8540	0.06812525
124	0xbc6fa017	-0.014625571
125	0x3db2a488	0.08722788
126	0x3cdaf5a8	0.026728466
127	0xbd9c34d7	-0.07627266
128	0x3c7bd724	0.015371118
129	0xbd67dd2d	-0.056607414
130	0x3dc353ba	0.09537454
131	0x3be6013e	0.007019191
132	0x3c8d78a2	0.017269436
133	0xbd0474c1	-0.032337908
134	0x3bea05aa	0.0071417885
135	0xbd965408	-0.073402464
136	0xbd957b2c	-0.07298884
137	0xbdc75ed6	-0.097348854
138	0xbd1271e9	-0.035753164
139	0x3d81392f	0.06309735
140	0x3db30653	0.087414406
141	0x3d934a57	0.071919136
142	0xbc0c4908	-0.008562334
143	0x3d868633	0.06568565
144	0xba1246a7	-0.0005579986
145	0x3c9b0a53	0.018925821
146	0xbd41c200	-0.047304153
147	0x3cec8829	0.02887352
148	0xbad1f6f3	-0.0016019031
149	0xbd371a85	-0.044703025
150	0xbbe745d8	-0.0070578866
151	0x3dab80d5	0.08374182
152	0x3d0d4ba9	0.034495983
153	0x3c52aaf3	0.01285814
154	0x3d40cd80	0.04707098
155	0x3c6c984c	0.014440607
156	0xbd9ca89f	-0.076493494
157	0x3bb5854b	0.0055395714
158	0x3d5d1fbc	0.053985342
159	0x3dbfb2ed	0.09360299
160	0xbc15dcef	-0.009146913
161	0x3d4173ad	0.047229458
162	0x3d6eb1be	0.058274977
163	0x3d047080	0.03233385
164	0x3da86533	0.08222427
165	0x3d80bd41	0.06286097
166	0xbd09b986	-0.033624195
167	0xbd9b2f02	-0.075773254
168	0xbd48b039	-0.048996184
169	0xbd760c07	-0.060070064
170	0x3dba375d	0.09092591
171	0xbc3395d4	-0.010961015
172	0xbd995dce	-0.07488595
173	0xbd01d66d	-0.031698633
174	0x3cdc9adc	0.026929311
175	0xbdc7832d	-0.09741817
176	0x3db6cb0b	0.08925446
177	0x3d8e0d18	0.06936091
178	0xbd898659	-0.06715078
179	0xbd2f518c	-0.04280238
180	0xbd3f9d0c	-0.04678063
181	0x3ddafd5d	0.106928565
182	0x3b180f16	0.0023202351
183	0x3d1d733a	0.038439967
184	0xbdba175c	-0.09086487
185	0xbd03e02d	-0.032196213
186	0xbd60c4f5	-0.054875333
187	0x3dca9db7	0.09893363
188	0xbc6a43aa	-0.014298359
189	0xbcfbd630	-0.030741781
190	0xbd64701f	-0.05577099
191	0xbd59a9f5	-0.0531406
192	0x3d4461eb	0.047944944
193	0xbdaa702c	-0.08322176
194	0x3d3599fa	0.044336297
195	0x3d8aaf8a	0.06771763
196	0x3d970ee7	0.07375889
197	0xbd179589	-0.037007842
198	0x3d91d88f	0.071213834
199	0x3def4f52	0.11685051
200	0x3da3c20d	0.079959966
201	0x3c10ecd9	0.008845531
202	0xbd18e261	-0.037325267
203	0x3dd09d3f	0.10186242
204	0x3bfbf597	0.0076891887
205	0xbdb7b97f	-0.089709274
206	0xbd5bfb67	-0.053706553
207	0x3cd0031d	0.02539211
208	0x3c9e3e0e	0.0193167
209	0x3d57d2c8	0.05269125
210	0xbd961d2b	-0.07329782
211	0x3d858912	0.06520285
212	0x3cda713d	0.026665324
213	0x3c054c62	0.008135887
214	0xbd3b698c	-0.045754954
215	0x3cdeb594	0.027186193
216	0x3dab10cf	0.08352815
217	0xbd9f0df9	-0.07766337
218	0x3c8fc8ee	0.017551865
219	0x3d92e181	0.07171918
220	0xbbdd44c2	-0.0067525813
221	0x3d4820a9	0.048859272
222	0x3d66804b	0.056274693
223	0xbd9f4e06	-0.07778554
224	0x3d31407f	0.0432744
225	0xbd55f4b2	-0.052235313
226	0x3c3ef12a	0.011654178
227	0x3cc1f8b7	0.023678167
228	0xbce16ed8	-0.027518675
229	0x3c576fd3	0.01314922
230	0x3d8db6f0	0.06919658
231	0x3c9b5fd4	0.018966593
232	0xbdae2d61	-0.08504749
233	0xbc7e9760	-0.01553902
234	0xbd91bfbd	-0.07116649
235	0x3d9d1342	0.07669689
236	0x3d30eafc	0.04319285
237	0x3ce55e57	0.027999086
238	0x3d7f63e7	0.062351134
239	0x3da41721	0.08012224
240	0x3baf31d0	0.0053465143
241	0xbd0511f7	-0.032487836
242	0xbc27b199	-0.010235214
243	0xbd832c57	-0.064049415
244	0x3d53fea1	0.051756505
245	0x3cc98f13	0.024604356
246	0xbd800830	-0.06251562
247	0x3da7767e	0.081768975
248	0xbdb028cb	-0.08601531
249	0x3d9ac10b	0.07556351
250	0x3d9b9ae0	0.075978994
251	0x3abc6cc1	0.0014375673
252	0xbd38ccf6	-0.04511734
253	0xbd88f324	-0.066870004
254	0xbd74c4d0	-0.059758008
255	0xbd5f703c	-0.054550394

sequential/dense_1/MatMul f4 [256, 512]
0	0xbd2c43e8	-0.042056948
1	0x3d897125	0.06711034
2	0xbcf5362b	-0.029933056
3	0xbca78ca8	-0.020452812
4	0x3ab87367	0.0014072479
5	0xbd784766	-0.060614966
6	0xbce06d22	-0.027395789
7	0x3caeba3c	0.021329038
8	0x3d6f90ad	0.058487583
9	0x3d8e2a24	0.069416314
10	0x3d98cb31	0.07460631
11	0xbdc5c700	-0.09657097
12	0xbd62adcd	-0.05534153
13	0x3da3f3cd	0.08005486
14	0x3d3c15aa	0.045919098
15	0xbda03e9b	-0.07824441
16	0x3d77e9a7	0.060525563
17	0x3c2ee77c	0.010675307
18	0x3c6d1126	0.014469421
19	0xbdae29a8	-0.08504039
20	0xbdc2bc66	-0.095085904
21	0x3d5997fa	0.05312345
22	0x3d1e8cfe	0.03870868
23	0xbd649221	-0.055803422
24	0xbc85b184	-0.016319998
25	0xbd961459	-0.073281
26	0xbd5dad84	-0.054120556
27	0xbcd02790	-0.02540949
28	0xbc11e03b	-0.008903558
29	0xbbaede95	-0.0053365924
30	0x3d3df69f	0.046377774
31	0xbb16c1dd	-0.0023003735
32	0xbc25f178	-0.010128371
33	0xbc9d0b83	-0.019170528
34	0xbd922c96	-0.0713741
35	0x3d72ff05	0.059325237
36	0xb9e007f2	-0.0004273053
37	0x3d8d94db	0.069131576
38	0x3d964d61	0.073389776
39	0x3c5e451d	0.013566283
40	0xbda5054a	-0.080576494
41	0xbdbbc318	-0.091680706
42	0xbbbcbf1e	-0.0057600876
43	0x3d5f40c9	0.054505143
44	0x3d4924c4	0.049107328
45	0x3da568a3	0.080765985
46	0x3d8a296f	0.06746184
47	0x3cd21160	0.02564305
48	0xbd85adee	-0.06527315
49	0x3c9ab190	0.018883497
50	0x3d5e0c21	0.054210786
51	0xbd33badf	-0.043879386
52	0x3d5b79ae	0.05358284
53	0xbd979298	-0.074010074
54	0xbd27d489	-0.040974174
55	0x3c118ac9	0.008883187
56	0xbd6b0b18	-0.057383627
57	0xbd6ad033	-0.05732746
58	0x3d339901	0.043847088
59	0xbd9d0ae3	-0.07668092
60	0xbc0453df	-0.008076637
61	0xbc1f6fab	-0.009731214
62	0x3c8f4286	0.017487776
63	0x3d906a29	0.070514984
64	0x3d47ed0c	0.04881005
65	0x3aef4f75	0.0018257933
66	0xbd215713	-0.03938968
67	0x3da8fabd	0.082509495
68	0xbd9f43be	-0.07776593
69	0xbd294d50	-0.041333497
70	0x3d732996	0.05936583
71	0xbd97c0c4	-0.07409814
72	0xbd02fd2f	-0.031979736
73	0xbda5c488	-0.08094126
74	0xbd1ec381	-0.038760666
75	0x3da2ed09	0.07955367
76	0x3d400e72	0.046888776
77	0x3d07a412	0.033115454
78	0xbda908de	-0.082536444
79	0x3d9a592f	0.07536542
80	0xbd11db31	-0.035609428
81	0xbcb79d80	-0.022413969
82	0x3c4115ac	0.011784952
83	0xbd81d763	-0.0633991
84	0xbcf3501c	-0.029701285
85	0xbd93329a	-0.07187386
86	0x3cbabd8e	0.022795465
87	0xbc800e50	-0.015631825
88	0x3d432f3b	0.047652464
89	0xbd687c77	-0.056759324
90	0xbda4e190	-0.08050835
91	0xbc938510	-0.018007785
92	0xbdaa9795	-0.08329693
93	0xbd888460	-0.066658735
94	0x3cbcfa9c	0.023068719
95	0xbdbe084e	-0.09278928
96	0x3cd661d4	0.026169695
97	0x3d8f725f	0.070042364
98	0xbd77980e	-0.060447745
99	0xbd72e331	-0.059298698
100	0x3da31c50	0.079643846
101	0xbcb3a798	-0.0219305
102	0xbd06200d	-0.03274541
103	0xbca3757c	-0.019953482
104	0xbb94e000	-0.0045433044
105	0xbd992252	-0.07477249
106	0x3da21833	0.07914772
107	0x3cd079e8	0.025448754
108	0xbd4be1ab	-0.04977576
109	0x3d9011f3	0.070346735
110	0x3d861b21	0.06548143
111	0x3d7f0270	0.062258184
112	0xbdb12a4e	-0.08650647
113	0xbcf2c830	-0.029636472
114	0xbcb3db38	-0.021955118
115	0xbd9c9d0a	-0.0764714
116	0xbd937b72	-0.0720128
117	0xbdc4d640	-0.096111774
118	0xbd4ab30d	-0.049487162
119	0x3c946bd6	0.018117826
120	0x3d0a8b1f	0.033824082
121	0xbd728235	-0.059206206
122	0xbc60e274	-0.013725866
123	0xbab0d6c9	-0.0013491745
124	0x3cafe40d	0.021471048
125	0xbd0471de	-0.032335155
126	0x3d85a9f7	0.06526559
127	0x3d58e10b	0.052948993
128	0x3d016b31	0.031596366
129	0xbd1fab5f	-0.03898179
130	0xbd2ad5f5	-0.04170795
131	0xbc186028	-0.009300269
132	0xbc3df2f0	-0.011593565
133	0x3d8eee19	0.06979007
134	0xbd3082ee	-0.043093614
135	0x3c3693d5	0.011143644
136	0x3d1be2d3	0.038058113
137	0xbdc8757d	-0.09788034
138	0x3d7fe236	0.06247159
139	0xbd67e3f0	-0.056613863
140	0xbd99950b	-0.07499131
141	0xbcc2b39c	-0.023767285
142	0xbbbd1dd0	-0.005771376
143	0x3db06a1b	0.08613988
144	0x3d70ce70	0.058790624
145	0x3d7837aa	0.06059996
146	0xbceaf7f3	-0.028682685
147	0x3d8f3eee	0.06994425
148	0xbd18eddd	-0.03733622
149	0x3d0cc514	0.034367636
150	0x3d2f687a	0.042824246
151	0xbcbeac04	-0.023275383
152	0x3d979d91	0.074031
153	0xbd826864	-0.06367567
154	0xbd9e43a9	-0.07727749
155	0xbcda1b94	-0.026624478
156	0x3d94cbc7	0.0726543
157	0xbce73f34	-0.02822838
158	0xbb3725d0	-0.0027946122
159	0x3bf5b13c	0.0074979346
160	0xbc27292d	-0.010202688
161	0x3d673d36	0.05645486
162	0xbd11fb48	-0.03564003
163	0xbcf32d54	-0.0296847
164	0xbd03c1ad	-0.032167125
165	0x3d98871b	0.07447644
166	0xbd5509ed	-0.05201142
167	0x3cca4938	0.024693117
168	0xbdd79291	-0.10526002
169	0xbdde7295	-0.108616985
170	0xbcfb91cf	-0.030709175
171	0xbd5d98b5	-0.05410071
172	0xbc4c6196	-0.012474438
173	0x3d0efe9f	0.034910794
174	0x3d802720	0.062574625
175	0x3ce65ee0	0.028121412
176	0x3c0ea3f8	0.008706085
177	0xbd913776	-0.070906565
178	0x3b0c1dc0	0.0021380037
179	0xbc7e1f70	-0.015510425
180	0xbca98c1c	-0.020696692
181	0xbd8a6713	-0.06757941
182	0x3ccc41f7	0.024933798
183	0xbcab4d96	-0.02091102
184	0x3d49c77c	0.04926251
185	0x3d2be5e6	0.041967295
186	0x3da69e66	0.08135681
187	0x3d5a422e	0.05328577
188	0xbd5867cd	-0.052833367
189	0xbdae4ce7	-0.08510762
190	0x3d412202	0.047151573
191	0x3c9da380	0.019243002
192	0x3d81871b	0.063245974
193	0x3d13fd0f	0.036130007
194	0xbd2a5e80	-0.04159403
195	0x3c76fbe8	0.015074708
196	0x3d784522	0.060612805
197	0xbd810909	-0.063005514
198	0xbd8b9ffb	-0.06817623
199	0x3d1c20c3	0.03811718
200	0x3d5ba631	0.05362529
201	0x3c3a42a3	0.0113684265
202	0xbd3062fa	-0.04306314
203	0x3d51921a	0.051164724
204	0xbd07bf6f	-0.03314155
205	0x3d2e714e	0.042588525
206	0xbd4b7cab	-0.04967944
207	0x3d6eeabe	0.058329336
208	0xbdb0a9e3	-0.08626153
209	0x3dac050d	0.08399401
210	0x3c5706cc	0.013124179
211	0x3c5e7e70	0.01357995
212	0x3d9b3ef9	0.075803705
213	0xbb848829	-0.004044552
214	0xbd98abba	-0.07454629
215	0x3c447898	0.011991642
216	0x3d234f09	0.039870296
217	0xbd5100d5	-0.051026184
218	0xbd8beec2	-0.06832649
219	0xbcad76ec	-0.02117487
220	0x3d0a6ab3	0.033793163
221	0x3d618f3e	0.055068247
222	0xbd6593d2	-0.056049176
223	0xbd9b9d2f	-0.0759834
224	0xbd8939b4	-0.06700459
225	0xbccf121f	-0.025277195
226	0x3c590d58	0.01324781
227	0xbd1031b1	-0.03520364
228	0xbd89a2ec	-0.06720528
229	0xbd2d3e3d	-0.042295683
230	0xbcb3dba0	-0.021955311
231	0xbd901834	-0.070358664
232	0xbbed8c0a	-0.00724936
233	0x3d5458c6	0.051842473
234	0xbc2958e8	-0.010336138
235	0xbd1535cf	-0.03642827
236	0xbd483d36	-0.0488865
237	0x3b278b29	0.0025565124
238	0xbd993158	-0.07480115
239	0x3d2ad2c7	0.04170492
240	0xbc8d045f	-0.017213998
241	0x3d82478c	0.06361303
242	0xbce27234	-0.027642347
243	0x3ca07754	0.01958815
244	0x3bf01ab0	0.0073274
245	0x3c2b5a28	0.010458507
246	0x3d6e9d19	0.05825529
247	0xbb37e09b	-0.002805746
248	0xbdbc0f33	-0.091825865
249	0xbd1e87d6	-0.038703762
250	0xbc351547	-0.011052436
251	0x3d0d9a04	0.03457071
252	0x3d27b36e	0.0409426
253	0xbd1c4a04	-0.038156524
254	0xbd91fbcc	-0.071281046
255	0xbda0ecac	-0.078576416

sequential/dense_2/MatMul f4 [3, 256]
0	0xbc3405e9	-0.010987737
1	0xbdaa27f3	-0.08308401
2	0x3dfb34c0	0.12265921
3	0xbdfb55ea	-0.12272246
4	0x3dedd6f9	0.116132684
5	0x3d99678e	0.074904546
6	0x3db815c7	0.08988529
7	0x3a841e9c	0.0010079923
8	0xbd2b92b6	-0.04188796
9	0x3da5c8f0	0.080949664
10	0x3e034103	0.12817769
11	0xbd585baa	-0.052821793
12	0xbdbe7022	-0.092987314
13	0x3dcea21e	0.10089515
14	0x3db1fc2f	0.08690678
15	0x3d2cf979	0.042230103
16	0xbe13c544	-0.1443072
17	0x3cd49f57	0.025954885
18	0xbd7173b4	-0.058948234
19	0x3d9794fd	0.07401464
20	0x3e0786c0	0.13234997
21	0x3c69635c	0.0142448805
22	0x3ddefa79	0.108876176
23	0x3df4572d	0.1193069
24	0x3c06de18	0.008231662
25	0x3daace91	0.08340181
26	0xbdaba92a	-0.08381875
27	0xbd0fca74	-0.035105184
28	0x3d06e97c	0.03293751
29	0xbdac6d62	-0.084193006
30	0xbdb3744d	-0.08762417
31	0xbd7c8896	-0.061653696
32	0xbdfb384c	-0.12266597
33	0x3c694c4e	0.014239384
34	0xbdb20b44	-0.08693555
35	0xbd6f4ce5	-0.05842294
36	0xbdb9869e	-0.09058879
37	0xbdce79d0	-0.10081828
38	0xbe09c94a	-0.13455692
39	0xbd34d2eb	-0.04414646
40	0xbc88defc	-0.01670789
41	0xbd45d007	-0.048294093
42	0x3dad0723	0.08448627
43	0xbd5f6690	-0.05454117
44	0x3dc8e0d2	0.09808506
45	0xbc1c33fd	-0.009533879
46	0xbd8525de	-0.06501363
47	0xbd262298	-0.040560335
48	0xbd9a229e	-0.07526134
49	0xbe0da571	-0.13832642
50	0x3cdee8ec	0.027210675
51	0x3c81427a	0.015778769
52	0xbda92f8e	-0.082610235
53	0x3d601c1d	0.05471431
54	0xbdf74356	-0.1207339
55	0x3df59680	0.11991596
56	0x3cbaa6e1	0.022784652
57	0x3cab8564	0.020937629
58	0x3d3a3a2d	0.045465637
59	0xbdeb8a47	-0.11500984
60	0xbd4cefbc	-0.050033316
61	0x3dea89b9	0.1145205
62	0xbdd45205	-0.103672065
63	0x3e00ade3	0.12566333
64	0xbcdaada7	-0.026694132
65	0xbd32ffac	-0.04370086
66	0x3de2e0f8	0.11078066
67	0x3d725fb8	0.059173316
68	0x3dffea8f	0.124959104
69	0xbda36d2f	-0.079798095
70	0xbd948889	-0.072526045
71	0x3e0a7c1f	0.13523911
72	0x3d5aae82	0.05338908
73	0x3d0808a1	0.033211354
74	0xbb892243	-0.0041849925
75	0x3c5a99b7	0.013342313
76	0x3bdd8554	0.0067602787
77	0xbdc3d1d6	-0.095615074
78	0x3d93d25a	0.07217856
79	0x3d08b0a0	0.033371568
80	0x3d662057	0.056183185
81	0x3dee14a1	0.116250284
82	0xbe0cd6ec	-0.13753861
83	0xbde79d05	-0.11309246
84	0x3d9458ac	0.07243475
85	0x3d89b54e	0.06724034
86	0xbdbd1dbf	-0.09234189
87	0x3e060be3	0.13090472
88	0x3da6cf94	0.08145061
89	0x3cd61768	0.026134208
90	0x3e0a1148	0.13483155
91	0x3d67b24d	0.056566525
92	0xbd8208f8	-0.06349367
93	0xbde971e8	-0.11398679
94	0x3bf9e26b	0.007625868
95	0x3d1a3b3c	0.037654147
96	0x3d61e391	0.055148665
97	0x3c16871f	0.009187489
98	0xbd933402	-0.07187654
99	0x3c59f0fe	0.013302086
100	0x3d2c5310	0.042071402
101	0xbd5f2914	-0.054482535
102	0x3c071e2d	0.008246941
103	0xbd5e459e	-0.05426561
104	0xbdb11e30	-0.08648336
105	0xbd31f258	-0.043444008
106	0x3da315cf	0.07963144
107	0x3ab27d35	0.0013617637
108	0xbde0f32e	-0.10983883
109	0xbd8222ee	-0.063543186
110	0xbdb267a9	-0.08711178
111	0xbe0db377	-0.13837992
112	0xbdf9962f	-0.12186848
113	0xbdab97ea	-0.08378585
114	0xbdc18746	-0.094496295
115	0xbd1df577	-0.03856417
116	0x3e12a603	0.14321141
117	0xbd89e440	-0.06732988
118	0xbd8456b2	-0.06461848
119	0xbd3f5c83	-0.046719085
120	0x3d0478a8	0.03234163
121	0xbd94e8d9	-0.07270975
122	0xbdd423c1	-0.10358382
123	0xbbc21a4a	-0.005923544
124	0x3d5786c1	0.052618746
125	0x3d378ffe	0.044815056
126	0xbbe1602a	-0.0068779187
127	0xbc61197a	-0.013738984
128	0x3d7f3a1c	0.062311277
129	0x3dd4ec49	0.1039663
130	0x3ddcc1ab	0.10779127
131	0x3d2a40ff	0.04156589
132	0xbbcfa56b	-0.006336858
133	0xbd024568	-0.031804472
134	0xbda9db13	-0.08293738
135	0x3a066ada	0.00051276165
136	0x3c1c73c8	0.009549089
137	0x3d80a3a9	0.06281216
138	0xbdf335d8	-0.11875504
139	0xbdb92bf8	-0.090415895
140	0xbdd4a98f	-0.10383903
141	0x3d82c927	0.06386023
142	0x3dff50ec	0.124666065
143	0x3df37cbd	0.11889026
144	0xbdc55d49	-0.09636933
145	0xbd7a2318	-0.061068624
146	0xbc946829	-0.018116074
147	0x3be58fa4	0.0070056487
148	0xbdde6a79	-0.10860152
149	0x3e1325d7	0.14369904
150	0xbba20980	-0.00494498
151	0xbdda9ff5	-0.10675041
152	0x3de95e37	0.11394923
153	0x3d89ed90	0.067347646
154	0xbdb8a4a7	-0.0901578
155	0x3da4783e	0.08030747
156	0xbe15d37e	-0.14631459
157	0xbdbc5ef0	-0.091977954
158	0xbb101ebf	-0.0021990982
159	0xbdc1c2f6	-0.09461014
160	0xbde499ce	-0.111621484
161	0xbdfc5e62	-0.123226896
162	0x3d11bd7f	0.03558111
163	0xbd74f4c5	-0.059803743
164	0x3d9be575	0.07612125
165	0xbda3575d	-0.079756476
166	0xbc85aee4	-0.016318746
167	0xbdb99678	-0.09061903
168	0x3d3a2fb0	0.045455635
169	0xbc11825a	-0.008881176
170	0xbabf2b56	-0.0014585059
171	0xbda22146	-0.07916503
172	0x3d6c2643	0.057653677
173	0x3db1d9ea	0.08684142
174	0x3d57bef4	0.05267234
175	0xbad76436	-0.0016433063
176	0x3e04af5c	0.1295752
177	0xbdc9ccbe	-0.098535046
178	0x3de3277f	0.11091518
179	0x3d5ecaf1	0.05439276
180	0xbdd26fe6	-0.10275249
181	0xbdbb84d2	-0.09156193
182	0x39fd2466	0.0004828304
183	0xbdc97754	-0.09837213
184	0x3dd5d923	0.10441806
185	0x3ca72aa3	0.020406073
186	0xbd8bb88f	-0.06822311
187	0xbd88290c	-0.06648454
188	0xbd2f9468	-0.04286614
189	0x3d8217fa	0.063522294
190	0x3bb18051	0.005416908
191	0xbc499686	-0.012303954
192	0xbd632d2c	-0.055463
193	0x3ca5d06c	0.020240985
194	0x3dbb72df	0.09152769
195	0xbdd3644a	-0.10321863
196	0xbcc10f6d	-0.023566926
197	0xbdd96372	-0.10614671
198	0xbda84258	-0.08215779
199	0xbddc5067	-0.10757523
200	0xbd82f6ee	-0.06394754
201	0xbdc0f9a5	-0.09422616
202	0x3ca50550	0.020144135
203	0x3d81811c	0.06323454
204	0x3cfb03aa	0.030641396
205	0xbd45e9bd	-0.048318613
206	0xbd9576ee	-0.07298075
207	0xbd93fe49	-0.072262354
208	0xbd80d863	-0.062912725
209	0x3d082660	0.033239722
210	0xbde07b43	-0.1096101
211	0x3cd667e7	0.026172591
212	0xbde36f3b	-0.111052
213	0xbdb4710b	-0.08810624
214	0x3de23fb4	0.11047307
215	0x3d770c8e	0.060314707
216	0x3e08a9f2	0.13346079
217	0xbc82e5ac	-0.015978657
218	0xbd7a5727	-0.06111827
219	0x39c50517	0.0003757856
220	0x3e043ad0	0.1291306
221	0x3d98f212	0.07468046
222	0x3e129181	0.14313318
223	0x3dd2ee27	0.1029933
224	0x3d926e56	0.07149951
225	0xbddefe84	-0.10888389
226	0x3b16c1eb	0.0023003768
227	0x3dee75ac	0.11643538
228	0xbcafbca7	-0.021452261
229	0x3d961201	0.07327653
230	0x3db58218	0.08862704
231	0x3dfc2d09	0.12313277
232	0x3d789899	0.060692403
233	0xbce12955	-0.027485529
234	0xbd6b2c35	-0.057415206
235	0xbd59d4e1	-0.053181533
236	0xbdcc0538	-0.09961933
237	0x3da12861	0.0786903
238	0xbdb6c650	-0.08924544
239	0x3c2f2f19	0.010692381
240	0x3dd26b15	0.102743305
241	0xbd6c8e86	-0.05775311
242	0x3dcfd7e2	0.10148598
243	0x3e1f93c5	0.15583713
244	0x3dfde398	0.12396926
245	0x3cbcb4df	0.023035465
246	0xbb999310	-0.0046867207
247	0xbcc1e377	-0.023668034
248	0xbdcdd184	-0.100497276
249	0x3d3b02d0	0.04565698
250	0xbd6ef353	-0.05833752
251	0x3dc04d8c	0.09389791
252	0xbdf8a786	-0.121413276
253	0x3cae41c4	0.021271594
254	0xbdf803cf	-0.121101014
255	0xbcf4808e	-0.029846456
